ai/best.onnx (onnx, 264384 bytes, 6 tensors)

model.9.linear.bias f4 [5]
000000 00 c0 40 3f 00 c0 34 3f 00 80 17 bf 00 c0 dc 3d
       0.7529297 0.7060547 -0.5917969 0.107788086
000010 00 80 56 bf
       -0.8378906

model.0.conv.weight_bias f4 [48]
000000 51 3b a8 40 49 9b e7 bf f8 1a 9e 3f cb 3e ae 40
       5.257241 -1.8094264 1.235198 5.445165
000010 08 8f f0 c1 ef be 46 40 a0 2d 72 bf 90 6d 6b 40
       -30.06984 3.1054037 -0.9460087 3.6785622
000020 c0 e8 39 bf 60 57 bd be 40 a4 63 3e 92 d4 a7 3f
       -0.72620773 -0.36980724 0.22230625 1.3111746
000030 50 89 2c 40 58 3d 6f bf 3b e1 61 40 3e c9 32 40
       2.695881 -0.9345298 3.529372 2.7935328
000040 d7 9a 44 40 66 69 83 3f a2 e9 b0 40 71 06 ca 40
       3.0719507 1.026654 5.5285196 6.3132863
000050 7e 59 95 c1 d6 22 e1 c1 26 9f a0 40 52 98 3b 40
       -18.668697 -28.14201 5.0194273 2.931172
000060 b0 0d 2c 3f f4 3f a3 3f b0 78 d8 be 28 32 4b 40
       0.67208385 1.2753892 -0.42279577 3.1749363
000070 80 dd c1 40 f0 83 84 3e 88 08 74 40 08 ad a8 3f
       6.0582886 0.2588191 3.8130207 1.3177805
000080 1c 26 ed c1 43 8a 0d 40 6a 1d 29 40 40 56 e3 bf
       -29.643608 2.2115638 2.6424203 -1.7760696
000090 e8 8b 41 c1 48 79 f4 3f 77 c5 81 40 60 28 7f 3e
       -12.096657 1.9099512 4.0553546 0.24917746
0000a0 97 8b 6a 3f 68 52 51 bf ce 46 b3 40 01 3a cc 40
       0.9161925 -0.81766367 5.602393 6.3820806
0000b0 c8 c8 af 3f 76 59 ef c0 c1 a6 24 41 b8 19 2b 41
       1.3733149 -7.4796705 10.290711 10.693779

model.2.m.0.cv1.conv.weight_bias f4 [48]
000000 83 30 8c 40 8a 71 48 c0 de b8 74 40 04 b9 41 40
       4.380922 -3.1319299 3.8237834 3.0269175
000010 08 c4 c7 3f a9 05 9c 40 20 1c ad 40 9a 21 54 40
       1.5606699 4.875691 5.409683 3.3145509
000020 b0 91 0c 40 9b ec 5f 40 c0 6f 7b c0 00 da b2 bc
       2.196392 3.4988163 -3.9286957 -0.021832466
000030 32 22 d1 bf aa 96 bc 3f 32 0a 2d c0 70 ba a3 3f
       -1.633856 1.4733479 -2.7037473 1.2791271
000040 17 d4 1c 40 09 b7 7f 40 68 66 3d 40 40 84 1d c0
       2.450445 3.9955466 2.9593754 -2.461197
000050 a0 b8 89 3d 5e ab 21 c1 7a 95 d6 c0 5b 89 b7 bf
       0.067246675 -10.104338 -6.7057467 -1.4338793
000060 a7 34 90 3f cc 39 08 40 74 4b 9e bf 84 51 ad bf
       1.1266068 2.1285276 -1.2366776 -1.3540502
000070 ea f8 c0 3e 06 8a 57 40 9e 62 fa c0 50 64 e3 c0
       0.37689906 3.3677993 -7.824538 -7.105995
000080 a0 c4 36 be d8 87 94 bf 90 44 ee bf e2 d7 22 40
       -0.17848444 -1.1603956 -1.8614674 2.5444264
000090 23 f6 e6 40 90 05 63 bf 9e f2 81 c0 5a 2e 8e 40
       7.217546 -0.8868036 -4.0608664 4.443158
0000a0 4c a9 9f 3f 39 85 31 41 dd ed 9d 3f bb 7e 95 40
       1.247354 11.095025 1.2338215 4.67172
0000b0 0c 4b 0a 40 51 7f 6e 40 2c 6f 89 bf e5 72 db 3f
       2.1608305 3.7265208 -1.0737052 1.7144438

model.2.m.0.cv2.conv.weight_bias f4 [48]
000000 6a 79 35 40 40 38 85 3f e2 e0 d1 c0 de 5d b6 40
       2.8355355 1.0407791 -6.5587015 5.6989584
000010 e2 96 5e bf 78 81 c2 3f 32 d0 7a 40 a1 7a 00 41
       -0.8694898 1.5195761 3.9189572 8.029939
000020 00 b1 62 bc 18 77 88 3e a4 4a 7d 3f 42 ce 23 40
       -0.013836145 0.2665336 0.9894202 2.559464
000030 88 e5 55 c0 0a 0d 31 3f de 0a 7d 40 54 97 c4 bf
       -3.3421345 0.6916052 3.9537883 -1.5358682
000040 2e 32 0c 40 0a 67 2f 40 98 05 1a 3f 14 fe 4b 40
       2.1905627 2.740664 0.60164785 3.1873827
000050 d8 83 2f 41 b0 f0 df 3e 14 9f c6 3f 93 d0 c6 40
       10.969688 0.43738317 1.5517297 6.2129607
000060 fc 12 ef 3f 7e bf f8 3f a8 e4 61 bf eb 21 09 40
       1.8677669 1.9433439 -0.88239527 2.1426952
000070 8c 77 42 c0 88 48 37 40 5b 1e 6d 41 a8 bc 0b 41
       -3.0385466 2.863802 14.819911 8.733559
000080 e4 d5 ef 3f 40 f8 94 3f c0 d8 20 3f 20 cb c6 c0
       1.8737149 1.163826 0.62830734 -6.2122955
000090 d0 60 55 3f 0c 65 ce c0 44 23 93 3f 00 23 59 bc
       0.8335085 -6.449835 1.1495137 -0.013252974
0000a0 6d 0c 28 c0 8f aa 6b 40 43 f9 75 40 86 5c 6a c0
       -2.6257584 3.682285 3.8433387 -3.6618972
0000b0 0e 3e da 3f b6 66 e8 be df e9 e4 40 18 65 2d 40
       1.7050188 -0.45390862 7.1535487 2.7092953

model.2.m.1.cv1.conv.weight_bias f4 [48]
000000 ae f5 71 40 0a 06 ff 3f a0 78 85 c1 6c 46 d0 bf
       3.78062 1.9923718 -16.683899 -1.6271491
000010 20 44 b2 be 78 b1 ca 3e 6c 3e e5 3f 30 be 4b bd
       -0.348176 0.39588523 1.7909675 -0.049741924
000020 f0 08 9f 40 03 3d 1f 40 e3 f7 0a 3f ca bc 75 c1
       4.969841 2.4880989 0.54284495 -15.358591
000030 61 f0 cd 3f d2 52 eb bf 92 cf 0a 40 50 b0 09 3f
       1.6088983 -1.838465 2.168919 0.53784657
000040 86 e3 8d 40 71 4f d8 c0 07 99 1a c1 c9 9c 04 40
       4.434024 -6.7596974 -9.66236 2.0720694
000050 60 d4 62 3e 42 31 02 40 e4 32 6a bf 79 af 7e 40
       0.22151327 2.0342565 -0.914839 3.97946
000060 01 d8 7b 40 c2 bd e0 40 ba 81 9c c1 8e ee 5e 40
       3.9350588 7.023164 -19.563343 3.4833102
000070 94 8c cf bf 68 ff ea 3f fa cd a1 c0 ca ea 27 40
       -1.6214776 1.8359194 -5.0563936 2.6237054
000080 0c 7d 3e c1 9f b9 f2 c0 dc 0a 17 41 0a 90 db 40
       -11.905529 -7.585159 9.440151 6.861333
000090 cc cb ab 40 46 85 c8 bf e0 ef 4c 40 b5 1b 7b c0
       5.3686275 -1.5665672 3.2021408 -3.923566
0000a0 cf d4 7b c0 a8 6a 3e 3e 0b 4a 8a 40 00 1b fa c0
       -3.9348638 0.18595374 4.3215384 -7.815796
0000b0 7d 0a a8 c0 8b b0 a8 be 66 c1 12 c0 a2 9d 6e 40
       -5.2512803 -0.32947192 -2.293054 3.7283711

model.2.m.1.cv2.conv.weight_bias f4 [48]
000000 e8 eb 98 3e c4 34 58 c0 32 eb 90 3f 56 7b 0a 41
       0.29867482 -3.3782206 1.1321776 8.655111
000010 2f 98 c9 3f 8e 38 6a c0 f5 80 0b 41 12 36 85 c0
       1.5749568 -3.6597018 8.718984 -4.1628504
000020 af 77 0e c0 eb 55 9e c0 a6 85 07 bf 08 34 18 bf
       -2.226055 -4.947988 -0.52938306 -0.59454393
000030 d4 ff 7a 40 03 ab a7 3f e3 d1 e4 40 fd 0c 4e 41
       3.9218645 1.3099064 7.150621 12.878171
000040 ff 39 8d 3f 4e aa 57 41 22 a6 17 41 1d 21 ae c0
       1.1033324 13.479078 9.47806 -5.441542
000050 93 d2 a9 41 58 f0 6f 41 13 4e 88 c0 00 5e 40 3f
       21.22782 14.996178 -4.2595305 0.7514343
000060 72 ea 16 41 08 5a ea 40 62 78 62 c0 44 c1 19 41
       9.432238 7.32349 -3.5385976 9.609684
000070 22 1b 04 41 ea a7 95 40 ac 2a 9f 3f 7b 85 5d c0
       8.256624 4.6767473 1.2434897 -3.461272
000080 a6 34 5f 40 d0 07 1a 3f bd 8a 86 c0 86 8f 8e 40
       3.4875884 0.6016817 -4.204436 4.45502
000090 d6 e7 39 c0 ea 0c 8e bf e6 a5 5f 40 00 cc fd bc
       -2.9047751 -1.1097691 3.4945006 -0.030981064
0000a0 ce 61 42 40 b9 2c 83 3f 20 1f fc 40 9d 1a db bf
       3.0372195 1.0248023 7.8787994 -1.7117497
0000b0 50 e7 57 3f a0 31 73 40 f0 c9 f0 c0 3c a6 09 41
       0.8433733 3.7999039 -7.5246506 8.603085
